…
sed base model The program now loads the pretrained BERT model: #@title Loading the Hugging Face Bert uncased base model model = BertForSequenceClassification.from_pretrained("bert-base-uncased", model = nn.DataParallel(model) We have defined the model, defined parallel processing, and sent the model to the device. For more explanations, see Appendix II, Hardware Constraints for Transformer Models. This pretrained model can be trained further if necessary. It is interesting to explore the archi- tecture in detail to visualize the parameters of each sublayer, padding_idx=0) (position_embeddings): Embedding(512, 768) (token_type_embeddings): Embedding(2, 768) (dropout): Dropout(p=0.1, inplace=False) (query): Linear(in_features=768, Linear(in_features=768, out_features=768, (dropout): Dropout(p=0.1, inplace=False) (dense): Linear(in_features=768, out_features=768, (dropout): Dropout(p=0.1, inplace=False) (dense): Linear(in_features=768, out_features=3072, bias=True) (dense): Linear(in_features=3072, Linear(in_features=768, out_features=768, (key): Linear(in_features=768, out_features=768, bias=True) (value): Linear(in_features=768, out_features=768, (dropout): Dropout(p=0.1, inplace=False) (dense): Linear(in_features=768, out_features=768, (dropout): Dropout(p=0.1, inplace=False) (dense): Linear(in_features=768, out_features=3072, bias=True) Fine-Tuning BERT Models (dense): Linear(in_features=3072, out_features=768, bias=True) (dropout): Dropout(p=0.1, inplace=False) Let’s now go through the main parameters of the optimizer.
*$%pass: Optimizer grouped parameters The program will now initialize the optimizer for the model’s parameters. Fine-tuning a model begins with initializing the pretrained model parameter values (not their names). The parameters of the optimizer include
…
 we will initialize a model from scratch and examine the size of the model.
*$%pass: The program first imports a RoBERTa masked model for language modeling: #@title Step 9: Initializing a Model From Scratch from transformers import RobertaForMaskedLM The RobertaForMaskedLM(config=config) If we print the model, we can see that it is a BERT model with 6 layers and 12 heads: The building blocks of the encoder of the original Transformer model are present with different dimensions, as shown in this excerpt of the output: Dropout(p=0.1, inplace=False) Pretraining a RoBERTa Model from Scratch (query): Linear(in_features=768, out_features=768, (key): Linear(in_features=768, out_features=768, bias=True) (value): Linear(in_features=768, out_features=768, (dropout): Dropout(p=0.1, LayerNorm((768,), eps=1e-12, elementwise_ (dropout): Dropout(p=0.1, inplace=False) (dense): Linear(in_features=768, out_features=3072, bias=True) (dense): Linear(in_features=3072, out_features=768, bias=True) (LayerNorm): LayerNorm((768,), eps=1e-12, elementwise_ (dropout): Dropout(p=0.1, inplace=False) Take some time to go through the details of the output of the configuration before continuing. You will get to know the model from the inside. ®-type building blocks of transformers make it fun to analyze. For example, you will note that dropout regularization is present throughout the sublayers. Now, let’s explore the parameters. Exploring the parameters The model is small and contains 84,095,008 parameters. We can check its size: The output shows the approximate number of parameters, which might vary from one trans- former version to another: Let’s now look into the parameters.
…
 predictions CLIP found the lion, which shows the flexibility of transformer architectures. The next cell displays the classes: You can go through the classes to see that with only one label per class, which is restrictive, CLIP did a good job: The notebook contains several other cells describing the architecture and configuration of CLIP that you can explore. The model cell is particularly interesting because you can see the visual encoder that begins with a convolutional embedding like for the ViT model and then continues as a “standard” size-768 transformer with multi-head attention: (conv1): Conv2d(3, 768, kernel_size=(32, 32), stride=(32, 32), (ln_pre): LayerNorm((768,), eps=1e-05, elementwise_affine=True) (ln_1): out_features=3072, bias=True) (c_proj): Linear(in_features=3072, out_features=768, (ln_2): LayerNorm((768,), eps=1e-05, elementwise_affine=True) Another interesting aspect of the model cell is to look into the size-512 text encoder that runs jointly with the image encoder: (ln_1): LayerNorm((512,), eps=1e-05, elementwise_affine=True) (c_fc): Linear(in_features=512, out_features=2048, bias=True) (c_proj): Linear(in_features=2048, out_features=512, bias=True) (ln_2): LayerNorm((512,), eps=1e-05, elementwise_affine=True) From NLP to Task-Agnostic Transformer Models Go through the cells that describe the architecture, configuration, and parameters to see how CLIP represents data. We showed that task-agnostic transformer models process image-text pairs as text-text pairs. We could apply task-agnostic models to music-text, sound-text, music-images, and any type of We will now explore DALL-E, another task-agnostic transformer model that can process images DALL-E, as with CLIP, is a task-agnostic model. CLIP processed text-image pairs.
…
